…
    "papermill": {
     "duration": 0.37359,
     "end_time": "2023-08-26T22:30:51.310119",
     "exception": false,
     "start_time": "2023-08-26T22:30:50.936529",
     "status": "completed"
    },
    "tags": []
   },
   "outputs": [
    {
     "name": "stdout",
     "output_type": "stream",
     "text": [
      "Model: \"sequential\"\n",
      "_________________________________________________________________\n",
      " Layer (type)                Output Shape              Param #   \n",
      "=================================================================\n",
      " conv2d (Conv2D)             (None, 80, 80, 32)        896       \n",
      "                                                                 \n",
      " conv2d_1 (Conv2D)           (None, 80, 80, 64)        8256      \n",
      "                                                                 \n",
      " max_pooling2d (MaxPooling2D  (None, 40, 40, 64)       0         \n",
      " )                                                               \n",
      "                                                                 \n",
      " dropout (Dropout)           (None, 40, 40, 64)        0         \n",
      "                                                                 \n",
      " conv2d_2 (Conv2D)           (None, 40, 40, 64)        16448     \n",
      "                                                                 \n",
      " max_pooling2d_1 (MaxPooling  (None, 20, 20, 64)       0         \n",
      " 2D)                                                             \n",
      "                                                                 \n",
      " flatten (Flatten)           (None, 25600)             0         \n",
      "                                                                 \n",
      " dropout_1 (Dropout)         (None, 25600)             0         \n",
      "                                                                 \n",
      " dense (Dense)               (None, 1)                 25601     \n",
      "                                                                 \n",
      "=================================================================\n",
      "Total params: 51,201\n",
      "Trainable params: 51,201\n",
      "Non-trainable params: 0\n",
      "_________________________________________________________________\n"
     ]
    }
   ],
   "source": [
    "import tensorflow as tf\n",
…
